models/anfis_model_v3.onnx (onnx, 95001 bytes, 1 tensors)

rule_cls_w f4 [88, 2]
00000000: 5c0b 09bc f354 203c 72b3 ceb9 7784 83ba
00000010: e4c8 4d3a acde 91b9 01b1 9d3a 71ce d5b9
00000020: 68ba f6be f3cb fc3f 1e6f ca3a b3e1 71ba
00000030: 0075 3cb7 e058 ba3a 5c68 f539 5233 603a
00000040: fa32 3839 2a36 823a eeb5 083f 15e9 d2be
00000050: 9601 12bb dabd a43f f04a 9eba daca a83a
00000060: b8be 86ba 5037 6a39 c37f e13e a3f8 223b
00000070: 6f73 efb9 a1ca 183a 50d4 ca38 2094 a63a
00000080: e0c7 a0bc 4830 3239 b8c7 25b8 16c3 853a
00000090: 76c3 2cba 262d 11ba 4a6c 273e 8fba 763f
000000a0: ec0a 543a f10e 1b3a c181 6dbb 5d1a 813b
000000b0: 683d 1fbb 8528 3c3b a1b4 8e3c ca7f 78bc
000000c0: b1a5 c839 2531 463a 2d48 a0bd 00c7 853e
000000d0: 3702 0a3a 5eae 323a 0a5a d8ba c67e 22ba
000000e0: fd46 b7b9 f1c1 4bba 460f 78b9 8b35 7c3d
000000f0: 7a87 0fc0 a257 0c40 a9c8 423a e008 de39
00000100: d0b6 72b8 ebc8 983a 48e1 293b ea15 cfbb
00000110: f3e5 723c ada4 74bc 8882 033e a80b e6be
00000120: 003f 94b8 cf13 8e3a aabc f7bf 71de d73f
00000130: 308c 893f 7a47 6bb9 049c 60ba 7470 eeb9
00000140: cd09 ed3a 8144 f4b9 8a20 25ba 6a76 083a
00000150: bcb3 49ba 2d9b 4bba aec2 95bf 66a2 bcb9
00000160: 74be 4f3a b113 853a 605d 3d3a f8f3 95b9
00000170: 49e8 b3bb 00bd c53b cab8 8e3b 0c0e a7bb
00000180: 881b 5fb8 532e deba 321f 543a f86e fcb9
00000190: 25de c13e 6ec2 11bf 6ca9 513a 1c43 0c3a
000001a0: 1dd4 193f d066 0dbf 0005 0dbb f42c 1f3b
000001b0: 60b8 0fba 1540 51ba 7e57 863a 86fa 0ab9
000001c0: 914d 42be 3cc8 4d38 3b44 4f3f 784c e0bf
000001d0: 58cf 153e 3567 86bc 840c 653a 9681 7039
000001e0: e1f7 283a 0e60 2bba 9a02 ab39 8cfc efba
000001f0: c43d 403a 3d55 063a b702 fd39 8c5c 133a
00000200: 98a0 ae39 d396 31ba 5fd8 68bb 1bd0 843b
00000210: 3a93 c33f ee1e a7bf 31eb 5b3a 6c10 96b9
00000220: ab56 873e 6c7e 29bf 6d85 b138 c456 2f3f
00000230: c25e c23a 9002 0db9 1744 b739 eda5 99ba
00000240: 7698 30bb 999e 823b 3829 65bb f95a 993b
00000250: a175 c03b 7d71 8cbd b58f b139 9379 303a
00000260: 9072 b03a 1569 373a b8ca 2e38 4c1f 26bb
00000270: 3829 2c3a 28ff e4b9 f038 843a 3949 b739
00000280: 30b0 3d3b 0d98 85bf 9a6c e53e 1e45 e5be
00000290: d0bb 06bf 7a73 03c0 a67d 4f3a d6d5 acb9
000002a0: 56de 383f a664 39bf be92 483a d812 16ba
000002b0: 67b8 abba 85e0 463a 7a93 35ba cda2 45ba
-0.008364525 0.0097858785 -0.0003942508 -0.0010033984 0.00078500644 -0.0002782246 0.0012030901 -0.00040780337
-0.48189092 1.974974 0.0015444492 -0.0009227052 -1.1232914e-05 0.0014217161 0.00046807795 0.0008552569
0.00017566598 0.0009934355 0.534026 -0.41193452 -0.0022278777 1.2870438 -0.0012076776 0.0012877837
-0.0010280227 0.00022336585 0.44042787 0.0024867437 -0.00045671637 0.0005828534 9.671657e-05 0.001270894
-0.019626558 0.00016993389 -3.9525068e-05 0.0010205235 -0.0006590405 -0.00055380387 0.16349903 0.96378416
0.00080887857 0.0005915007 -0.003624067 0.0039399103 -0.0024298076 0.0028710675 0.017420115 -0.015167186
0.00038270422 0.00075604237 -0.078262664 0.26128387 0.0005264612 0.0006816144 -0.0016506326 -0.00061987
-0.0003495737 -0.0007772735 -0.00023656813 0.0615745 -2.2426438 2.1928487 0.00074304134 0.00042349752
-5.7867554e-05 0.0011656558 0.0025921632 -0.006319751 0.014825332 -0.01493184 0.12842762 -0.44930768
-7.0689246e-05 0.0010839644 -1.9354451 1.6864759 1.0745907 -0.00022437974 -0.000856817 -0.00045478682
0.0018084586 -0.00046590346 -0.0006299099 0.00052056334 -0.0007694324 -0.00077669584 -1.1700037 -0.0003597915
0.0007924803 0.0010152963 0.0007223692 -0.00028601266 -0.005490337 0.0060344934 0.0043555247 -0.00509811
-5.3192984e-05 -0.0016951062 0.00080918067 -0.00048147864 0.37864795 -0.569373 0.0007997963 0.0005350576
0.60089284 -0.55235004 -0.0021517873 0.0024288269 -0.0005482491 -0.0007982266 0.0010249463 -0.00013254033
-0.18974902 4.906229e-05 0.80963486 -1.7523336 0.14629877 -0.016406635 0.0008737522 0.00022936458
0.0006445628 -0.00065374456 0.000326176 -0.0018309518 0.00073334225 0.0005124396 0.00048257943 0.00056213955
0.00033307518 -0.0006774489 -0.0035529358 0.0040531284 1.5279305 -1.3056314 0.0008389233 -0.00028622465
0.2643331 -0.6620853 8.46487e-05 0.6849177 0.0014829265 -0.00013447762 0.0003495521 -0.0011722423
-0.0026946343 0.0039861915 -0.0034967195 0.0046800342 0.0058733975 -0.06857584 0.0003386714 0.0006731983
0.0013461877 0.00069965544 4.167363e-05 -0.0025348244 0.00065674214 -0.00043677655 0.001008777 0.00034959035
0.0028944127 -1.0437027 0.4480942 -0.44779295 -0.5263033 -2.0539231 0.00079151464 -0.00032965717
0.7221426 -0.724192 0.0007651261 -0.0005724854 -0.0013101221 0.00075865566 -0.0006926578 -0.0007539213
